…
LSTM(32, return_sequences=True))(x) x = layers.Bidirectional(layers.GRU(32))(x) # Add a classifier outputs = layers.Dense(2)(x) student = keras.Model(inputs, outputs, name='student') student.summary() # Clone student for later comparison student_scratch = keras.models.clone_model(student) Model: \"teacher\" _________________________________________________________________ Layer (type) Output Shape Param # ================================================================= input_1 (InputLayer) [(None, 200)] 0 _________________________________________________________________ embedding (Embedding) (None, 200, 128) 2560000 _________________________________________________________________ bidirectional (Bidirectional (None, 200, 128) 98816 _________________________________________________________________ bidirectional_1 (Bidirection (None, 256) 198144 _________________________________________________________________ dense (Dense) (None, 2) 514 ================================================================= Total params: 2,857,474 Trainable params: 2,857,474 Non-trainable params: 0 _________________________________________________________________ Model: \"student\" _________________________________________________________________ Layer (type) Output Shape Param # ================================================================= input_2 (InputLayer) [(None, 200)] 0 _________________________________________________________________ embedding_1 (Embedding) (None, 200, 64) 1280000 _________________________________________________________________ bidirectional_2 (Bidirection (None, 200, 64) 24832 _________________________________________________________________ bidirectional_3 (Bidirection (None, 64) 18816 _________________________________________________________________ dense_1 (Dense) (None, 2) 130 ================================================================= Total params: 1,323,778 Trainable params: 1,323,778 Non-trainable params: 0 _________________________________________________________________ # Train teacher as usual teacher.compile( optimizer=keras.optimizers.Adam(), loss=keras.losses.SparseCategoricalCrossentropy(from_logits=True), metrics=[keras.metrics.SparseCategoricalAccurac
…
